CourseWork/models/hcv-AST-CHE-ALT-ALP-GGT.tflite (tflite, 4436 bytes, 8 tensors)

arith.constant f4 [16]
00000000: 9af5 75bd 8137 c13a 7535 583e a3fa e8bd
00000010: 6876 653e 5153 543e 5a1a 933e ee25 553e
00000020: d71f 3c3e c964 513e b496 a53e 35d2 843e
00000030: 31e8 ca3d 8c32 37be 88fc d43d 33b6 87bd
-0.060048677 0.0014741273 0.21114142 -0.1137593 0.2240845 0.20734908 0.28731042 0.2081525
0.18371521 0.20448603 0.3234154 0.25941625 0.09907568 -0.17890376 0.10399729 -0.066265486

arith.constant1 f4 [16]
00000000: 9e94 23be 0f38 a83e 7757 873e 83c6 5cbe
00000010: f5ca 9c3e 8282 483e 673c d63e 3384 6dbd
00000020: 6d8b 88bb 2ecf c63b 29b3 8c3e d4ad 8c3e
00000030: 9cb0 953e 7a57 693e 9ffa c03e bbb1 a8be
-0.15974662 0.3285527 0.26433918 -0.21560101 0.30623594 0.19581035 0.41842958 -0.057987403
-0.0041670115 0.006067178 0.27480438 0.2747637 0.29236305 0.22787276 0.3769121 -0.32948098

arith.constant2 f4 [5]
00000000: cca9 0f3e ffd0 48be f6f4 32be 8570 82bd
00000010: 2731 9fbd
0.14029616 -0.19610976 -0.17476258 -0.06369118 -0.07773047

arith.constant3 f4 [5, 16]
00000000: 3d5f 3abf 3734 313e 2978 043f e68a 21bf
00000010: 2d0e db3e 65b5 333f c2eb e83d 8dcd 0d3f
00000020: 556c f13e f7c8 db3b e9a7 543f d3e3 573f
00000030: b114 fcbe c931 0fbf 318a 27be bf5f f2be
00000040: 2567 8b3e d1ab 383e f2d0 84bd 42fc 783e
00000050: 797f 44bb d6fc 1e3e 384e 80bd 280e 10bf
00000060: 6fea 9c3d cfc9 34bf 288b a9be 8734 8c3d
00000070: 30b3 8abe 0e3e 683e 2892 15bf a912 8bbd
00000080: dea9 babe 16f1 22bf 9f1f e3be d29a abbe
00000090: f0de a93e a1e5 18bf 5407 e0be d147 eabd
000000a0: 88ec 6a3e a343 8a3e 7300 3bba daa6 9f3e
000000b0: 0692 223f d7b3 253e fe2f 03bf 4b24 0a3f
000000c0: 461e e43e 2e7b 2c3e 0165 d63d 216b 82be
000000d0: 8e2d 3f3e 1d28 23bf 40f1 963e 2ee5 46bc
000000e0: 5853 7ebe dd4e e4be 138f 88bc 9c80 27bc
000000f0: d022 013f 0ad2 dbbe 31a3 ffbe 656f 38bd
00000100: 27d1 d43b db0f 53bf 93a7 75be ccbe 8b3e
00000110: 46fb debe a444 0f3e 6a14 d9be c332 7f3e
00000120: 6cec 35bf 3c3e 15be 65de fc3d 7c81 57bf
00000130: 426b 29bf 2281 e9bd a3cc 4c3f 55a7 bd3d
-0.7280157 0.17305075 0.5174585 -0.6310257 0.42784253 0.7019866 0.11373092 0.5539177
0.47152963 0.0067073065 0.8306871 0.8433201 -0.49234536 -0.5593534 -0.1636131 -0.47338673
0.2722713 0.18034293 -0.06485166 0.24314979 -0.0029983206 0.15526137 -0.06264919 -0.562716
0.07661902 -0.70620435 -0.3311398 0.06845956 -0.27089834 0.22679922 -0.5842614 -0.067906685
-0.36457723 -0.6364912 -0.44360062 -0.33516556 0.331779 -0.59725386 -0.4375559 -0.11439479
0.22941792 0.27004728 -0.0007133551 0.31181985 0.63504064 0.16181885 -0.51245105 0.5396163
0.44554347 0.16843864 0.10468484 -0.25472358 0.18669721 -0.63733083 0.29480934 -0.012139602
-0.2483648 -0.44591418 -0.016669786 -0.010223534 0.50443745 -0.42933685 -0.49929193 -0.04502811
0.0064946595 -0.8244607 -0.23989706 0.27294004 -0.4355108 0.13991028 -0.42398387 0.24921708
-0.71063876 -0.14574522 0.12347106 -0.8418195 -0.6617929 -0.11401583 0.7999975 0.09260432

arith.constant4 f4 [16, 16]
00000000: 59ba db3e a7ab 47be 2670 7e3e 5b2c ef3e
00000010: 7043 dbbe 0332 133f 4764 4ebd 4950 843e
00000020: 52ba 3f3e a229 4fbd 8f39 8abe a2a1 f0bd
00000030: 1838 6a3e 35c5 2ebd a410 7ebe a63d a83b
00000040: 91e4 91be 3881 0b3f 8bea 3f3e ca42 7ebe
00000050: 3848 a23e f0d9 73be b9a9 1b3e c1f2 5a3e
00000060: 5bef b8be fff5 f6be 05f6 0e3f d213 aabd
00000070: def6 233e 5c04 9d3e c34c 4a3e 7671 10be
00000080: 3cdb 63be 1ae6 d2bd 2cbd a53e 9822 72be
00000090: e3dd 283d ed9b e23e 2f4f d2bd 893d b03e
000000a0: e702 3b3e 9f37 f0be 5d63 71be 07f6 a9bd
000000b0: 3025 493e 9881 243e 1f1f 353e 488a d53c
000000c0: d86a 103f 5efe 9abe a79a edbe 74fb 2cbc
000000d0: 1370 943d 6119 e43b dc5d 8c3e 5d81 ae3d
000000e0: 057a e33e adc1 a13d 6ee9 bc3e a981 663d
000000f0: 6584 ea3d 2055 90be 14d5 613e c4a5 6e3e
00000100: dbd0 30be 8c17 f73e 7e05 873e 2c10 36bd
00000110: 8124 2d3f 5463 c73e c40b 7b3e 3b50 663e
00000120: 5087 63be 990c 983d e1aa cb3e ddc2 593e
00000130: 6cff 43be 4c4e 30be e825 90bd d61c 1fbe
00000140: f046 1d3e e24c 6b3e 6f77 0dbe 5a9a 54be
00000150: 1b5b 203f db79 cc3d ddeb 0e3c f930 b9be
00000160: 3ac2 923e 762b 88be a7aa ff3e 0c83 973c
00000170: 62d1 b73e 4c45 6b3d 7cf6 233f f30d 81be
00000180: 17cf fe3d 58c4 7abd fe2f 353e c493 aabd
00000190: 5a84 31be c049 a1be 8e82 9c3e bbb5 72bd
000001a0: afbd 03be 88a9 b73e 7cde 1b3f 6a9d 833e
000001b0: 392b 653e 9725 42bd 6b99 153e 55ec 55be
000001c0: 37d6 cdbd 51a0 1c3f 6ef7 093e fc3e 65be
000001d0: f378 233f a319 c0bd 6db4 843e 9ee3 ef3e
000001e0: 85c3 4f3e 30c6 99be 3c1e d03e 987e 05be
000001f0: 9c24 333e ba59 7b3e 3806 143f 6a84 d73c
00000200: 5ccc e23d 70e4 103f 8e80 18bd 9aa1 92be
00000210: 5dc1 dd3e 1007 1a3e c13f a63e 9833 19bd
00000220: 664e e8be 42d9 293d 3fc7 a9bd 93b6 51bb
00000230: aaa1 0a3e 42d4 dd3e 65d4 96bc db0f b6bd
00000240: 71b9 e2be 2591 893b 6b77 e33e e61d 4abe
00000250: ff11 643e d4a0 cebe 6cda bf3e baa9 6e3e
00000260: ab6b acbe b955 fabb e4d8 613e 3235 e03b
00000270: ae88 f63e a047 d3bd 2ffc 1abe a54c 623e
00000280: 1090 57be f3df 713c 896c 94be 4e3b dbbe
00000290: 9794 4a3f bc47 ff3c 0148 a13e 2e30 a1be
000002a0: d4c7 cabd 2383 dbbe f0b4 01be 0c88 833e
000002b0: 0893 0c3e 3639 d83e 69f9 023f a731 b4be
000002c0: 81a7 ad3d 4285 8c3e f619 73be f78d cdbe
000002d0: c61d cd3e 21fa cd3d 9d48 9f3e da4b 2c3e
000002e0: b49f 01bf 0592 76be e349 773c 0e09 c03e
000002f0: 6deb c13e 9ce6 403e d252 ed3e fcc3 aabe
00000300: fba1 20be 5f49 7fbf af75 943e 96cb e2be
00000310: f07e 723e 1042 62bd 50b7 a53d d777 32bd
00000320: de50 213e 9e94 313f ec38 7ebe c5e4 333e
00000330: db35 67be 1c86 ed3d ab0b 21be 9743 70be
00000340: 368d d83e b8b9 a8be a0bd 073d de4b 94be
00000350: e2cd 093b b73d e33e f86d f5be 9303 aa3e
00000360: 9f21 963e 11cf dbbb 4146 3cbe 0dcd 77bd
00000370: a23e 793d 295c ae3e 467d 25be 49ff 813b
00000380: 5fe6 d9bb 9012 47bd 35b5 233e 0c67 843e
00000390: bcb8 bc3d 3745 f43c 6341 a5be a55f 3c3e
000003a0: cf95 0e3f a13d 57be 92c3 e4be af4b e8be
000003b0: 631b 473e 6334 a0be 2df3 153f ebb3 87be
000003c0: d3a2 2dbd a8f5 8bbe af99 263e 48d4 a73e
000003d0: bf75 433e c970 033e e042 c43e abf4 873e
000003e0: a336 f63e ba54 6a3e 4c6b 12be d3a7 a23e
000003f0: f5fc 35be 2322 59be 47ee babd f541 6b3d
0.4291561 -0.19499074 0.24847469 0.46713528 -0.42824888 0.57498187 -0.0503886 0.25842503
0.1872342 -0.050576814 -0.2699704 -0.11749579 0.2287296 -0.04266854 -0.24811035 0.005134302
-0.28494695 0.5449405 0.18741815 -0.24830166 0.31695724 -0.23813605 0.15201463 0.21381666
-0.36120114 -0.48234555 0.55844146 -0.08304562 0.16012141 0.30667388 0.19755845 -0.14105782
-0.222516 -0.10297795 0.3237089 -0.23646009 0.041227233 0.44259587 -0.10269009 0.34421948
0.18262826 -0.46917436 -0.2357306 -0.08298879 0.19643092 0.16065061 0.17687653 0.026066914
0.5641303 -0.30272192 -0.46407053 -0.010557998 0.07247939 0.006961033 0.2741536 0.08520768
0.4442903 0.07898269 0.36896843 0.056275997 0.114510335 -0.28189945 0.22053939 0.23305422
-0.17267172 0.48260152 0.26371378 -0.044449016 0.67633826 0.3894297 0.24516207 0.22491543
-0.22219586 0.07424278 0.39778808 0.2126574 -0.19140404 -0.17217368 -0.0703848 -0.15538344
0.15359092 0.22978547 -0.13815092 -0.20762005 0.62639016 0.099841796 0.008723226 -0.36170176
0.28663808 -0.26595658 0.49934885 0.018495105 0.35901934 0.057439134 0.6404798 -0.25205955
0.12441843 -0.061222404 0.17694089 -0.08328965 -0.17335644 -0.3150158 0.30568355 -0.059255343
-0.12865327 0.3587153 0.6088636 0.25706035 0.2237977 -0.04739913 0.14609306 -0.20890935
-0.10050624 0.61182123 0.13473293 -0.22387308 0.6385643 -0.0937989 0.25918904 0.46853346
0.20289429 -0.30034018 0.40648067 -0.13036573 0.17494434 0.24545947 0.5782199 0.026308257
0.11074135 0.5659857 -0.037231974 -0.28638917 0.43311587 0.15041757 0.32470515 -0.03740272
-0.45372313 0.04146696 -0.08289956 -0.0031999692 0.13538232 0.43326002 -0.018411824 -0.08889743
-0.44282106 0.004198211 0.44427046 -0.19737968 0.2227249 -0.40357077 0.3747133 0.23306933
-0.33675894 -0.0076396135 0.22055393 0.006842279 0.48151153 -0.10316396 -0.15135263 0.2209955
-0.21051049 0.014762866 -0.28989056 -0.42818683 0.7913298 0.031162135 0.31500247 -0.3148207
-0.099013954 -0.42873487 -0.12666678 0.25689733 0.13727963 0.42231148 0.5116182 -0.35194132
0.084792145 0.27445418 -0.23740372 -0.40147373 0.40061778 0.10057474 0.31110087 0.1682581
-0.5063431 -0.2407914 0.0150933 0.37506908 0.37874928 0.1883797 0.4635225 -0.3335265
-0.1568679 -0.9972133 0.28996035 -0.4429595 0.23681235 -0.055238783 0.08091605 -0.04357132
0.15753505 0.69367397 -0.24826401 0.17567737 -0.22579138 0.11597845 -0.15727107 -0.23463283
0.42295235 -0.32954192 0.033139825 -0.28964132 0.0021027257 0.44383022 -0.47935462 0.33205852
0.29322526 -0.006708034 -0.18386175 -0.060498286 0.060850747 0.34054688 -0.1616107 0.0039672
-0.006649777 -0.048601687 0.15987094 0.2585987 0.09214923 0.02981816 -0.3227645 0.1839586
0.5569734 -0.21019603 -0.44680458 -0.45370242 0.19444041 -0.31289968 0.5857418 -0.26504454
-0.04239161 -0.27335858 0.16269563 0.32779145 0.19087885 0.12835993 0.38332272 0.26553854
0.4808856 0.22883883 -0.14298743 0.31768665 -0.17772277 -0.21204428 -0.09127479 0.05743595

arith.constant5 f4 [16, 5]
00000000: a09b 96bd d490 c1be 2f70 7a3e 40cd b53e
00000010: b832 56bd 0e8c 47bf 4c7b dfbe 4cdf 473e
00000020: 707f 723e 2ff8 b2be 8ff4 a03e 73d1 8c3e
00000030: 54c2 9e3e 3767 25bf 6ddb dcbe f0c1 9d3e
00000040: ce6e 98be 95f5 0b3f 1430 c3be e863 90be
00000050: 129d 4ebf 75ca c73e c384 f0bc 0c62 d73d
00000060: 778a f0be bcf5 f5ba ebcb c53e 6d24 a33e
00000070: 5f54 353e abd9 813e 49fb 18bf ade8 01be
00000080: f8cd 223e ddfc d3be d3b3 1e3e 108e 983e
00000090: 897a 88be 2804 553e 8f8a 15be 8b32 133d
000000a0: c8d0 ba3e e81f 30bf cdf5 02bf 7232 cd3e
000000b0: ed8a 093f 6cb4 b83e 314c fb3e 5873 c0be
000000c0: 8edd e4be 7ed1 a63e 2d48 38bf c948 8abe
000000d0: 8654 a03e ef9a b3bd 31b2 813e cb26 e6bd
000000e0: 354b a83e b292 853d 12b8 69be e788 053f
000000f0: 4148 64bf ee91 c43e 85bb c2be 121a dd3e
00000100: 227e 07bf dd70 d0bc d416 fd3e 9ebe 6c3e
00000110: 94bf 143e c61e 0e3e 77a8 863d ba48 a2be
00000120: ab1a 0e3e 2786 84bd 6ad4 25be a06f 8b3e
00000130: 924e eebe f136 a33e cee7 03bf 26ae 903e
-0.07353902 -0.37805808 0.24456857 0.35508156 -0.052294463 -0.7794808 -0.43648756 0.19518775
0.23681426 -0.34954974 0.31436583 0.27503547 0.31007636 -0.6461062 -0.4313616 0.30812025
-0.29772037 0.54671603 -0.38122618 -0.28201222 -0.8070842 0.3902165 -0.02936018 0.10516748
-0.4698064 -0.0018765251 0.3863214 0.31863728 0.17707966 0.2536138 -0.5975843 -0.12686415
0.15898883 -0.41403857 0.15498285 0.29795885 -0.26655987 0.20802367 -0.14603637 0.035936873
0.36487412 -0.68798685 -0.5115631 0.4007755 0.5372761 0.3607515 0.49081567 -0.37588
-0.44700283 0.32581705 -0.7198513 -0.27008656 0.31314486 -0.087697856 0.25331262 -0.11237868
0.32869878 0.065221205 -0.22824124 0.5216202 -0.8917275 0.38392586 -0.3803369 0.43183953
-0.5292684 -0.025444442 0.4943148 0.2311959 0.14526206 0.13878927 0.06575101 -0.3169611
0.1387736 -0.064709 -0.16194311 0.272336 -0.4654432 0.31877854 -0.5152558 0.28257865

arith.constant6 f4 [1, 5]
00000000: 5c2f f53c 3f12 ea3e 7de2 153d ad13 3f3d
00000010: 8c09 a03c
0.02992981 0.45717046 0.03659295 0.046649624 0.019535802

Const_1 f4 [1, 5]
00000000: 7090 0a42 719e 0241 7a8f e841 8c0a 8742
00000010: f0df 1c42
34.641052 8.163682 29.070057 67.5206 39.21869
