CourseWork/models/hcv-AST-CHE-ALT-ALP-GGT.tflite (tflite, 4436 bytes, 8 tensors)

arith.constant f4 [16]
0	0xbbe69c88	-0.007037703
1	0x3d6def1d	0.058089364
2	0x3d6a338c	0.057178065
3	0x3e11cc4a	0.14238086
4	0xbda166b4	-0.07880917
5	0xbc2a7ac4	-0.010405246
6	0x3e68eeb0	0.22747302
7	0x3df50320	0.11963487
8	0xbc95e59e	-0.018297967
9	0x3e54cdf2	0.20781687
10	0x3e3f5f22	0.18688634
11	0xbd0c07cf	-0.034187134
12	0xbe2248cb	-0.15848081
13	0xbe479fe4	-0.19494587
14	0x3e0898c2	0.13339522
15	0x3e53128e	0.20612547

arith.constant1 f4 [16]
0	0x3e7eea6b	0.24894111
1	0xbe56ee50	-0.20989347
2	0x3efe8792	0.49712807
3	0x3e3467bb	0.17617695
4	0xbdac5b4b	-0.0841585
5	0x3eb47642	0.35246474
6	0x3eb76318	0.3581779
7	0x3ebb95a6	0.3663761
8	0x3e9de7ac	0.30840814
9	0x3d6785f8	0.056524247
10	0x3db46587	0.08808427
11	0x3eab04e7	0.33402178
12	0x3e7083bc	0.23487753
13	0x3f0bf138	0.54664946
14	0x3ed8cd25	0.42344013
15	0x3e8ce773	0.27520332

arith.constant2 f4 [5]
0	0x3e0471fc	0.12934107
1	0xbe33b68d	-0.17550106
2	0xbe1dfbb9	-0.15428056
3	0x3da60927	0.081072144
4	0xbe500780	-0.20315361

arith.constant3 f4 [5, 16]
0	0xbe4d11e4	-0.20026356
1	0x3eb016e8	0.34392476
2	0xbf610e2d	-0.87912256
3	0x3f36e598	0.7144408
4	0xbf2d61b3	-0.677272
5	0x3e6ea1ef	0.2330396
6	0xbe27ab1c	-0.16373867
7	0x3eed954c	0.46402967
8	0xbeeaf421	-0.4588938
9	0x3f4218a6	0.7581886
10	0xbab326f0	-0.001366822
11	0xbee01a49	-0.43770054
12	0xbf21532f	-0.63017553
13	0xbe612139	-0.2198533
14	0xbb8d4406	-0.0043110875
15	0x3e7a792b	0.24460284
16	0x3e25f854	0.16208011
17	0x3d277702	0.04088498
18	0xbe97f9e4	-0.2968284
19	0x3d435134	0.047684863
20	0x3e1fd59c	0.1560883
21	0xbf2fd46c	-0.68683505
22	0xbf480f71	-0.7814856
23	0xbdc34585	-0.09534744
24	0xbe09e2a1	-0.13465358
25	0xbe8a78b1	-0.27045205
26	0xbecc7eb4	-0.39940417
27	0xbec0006a	-0.37500316
28	0x3e7130cb	0.2355377
29	0x3eabb1ff	0.33534238
30	0xbedf1828	-0.43573117
31	0xbe1b9d0d	-0.15196629
32	0x3d85299a	0.065020755
33	0xbe04ab13	-0.12955885
34	0x3f472b45	0.778004
35	0xbf14ab63	-0.58074015
36	0xbc3ccb65	-0.011523102
37	0x3e9242d4	0.2856661
38	0x3f167471	0.58771425
39	0x3e6b3078	0.22967708
40	0xbefc21f3	-0.4924465
41	0xbf123200	-0.57107544
42	0xbef49b8f	-0.47774932
43	0xbedd4102	-0.4321366
44	0x3e07e78b	0.1327192
45	0x3ee59860	0.44842815
46	0xbcb40628	-0.021975592
47	0xbf139f43	-0.5766489
48	0xbdb1b1c5	-0.08676485
49	0xbebf2b50	-0.37337732
50	0x3e98a805	0.2981569
51	0xbebae345	-0.36501518
52	0x3e9fc479	0.31204584
53	0x3d5b9a95	0.053614218
54	0x3ee9f38c	0.45693624
55	0xbf01e2ed	-0.50736886
56	0xbe0576f4	-0.13033658
57	0xbf195c93	-0.5990688
58	0xbedd5b34	-0.43233645
59	0x3ec5fa1e	0.38667387
60	0xbed15748	-0.40886903
61	0x3dc97dd7	0.09838455
62	0xbf16ff0e	-0.5898293
63	0xbc3e81d8	-0.011627637
64	0xbf33ed96	-0.702844
65	0x3eb0f4ef	0.3456187
66	0x3e6849eb	0.22684447
67	0xbec4df9d	-0.38451853
68	0x3f3af11e	0.73024166
69	0x3e07526d	0.13215037
70	0xbf62542d	-0.8840969
71	0xbdc5e148	-0.096621096
72	0xbd564e29	-0.052320633
73	0x3eaabc66	0.33346862
74	0xbeec2ece	-0.4612946
75	0xbde51a29	-0.1118663
76	0xbef306ce	-0.4746613
77	0x3ebd4a56	0.36970776
78	0xbebe523b	-0.37172112
79	0xbe8dd4ce	-0.2770142

arith.constant4 f4 [16, 16]
0	0xbcb7839c	-0.022401623
1	0xbe653793	-0.22384481
2	0xbda586aa	-0.08082326
3	0xbe573839	-0.21017541
4	0x3e9a330f	0.3011708
5	0xbdc065ec	-0.0939444
6	0xbe3179de	-0.17331645
7	0x3eeb4ed0	0.45958567
8	0x3eb21181	0.3477898
9	0x3e37801e	0.17919967
10	0x3d2009e8	0.039071947
11	0x3dc820e1	0.09771896
12	0xbe3f8a53	-0.1870511
13	0x3ee6f434	0.45108187
14	0x3eb75929	0.3581021
15	0x3d0b332c	0.03398435
16	0xbcee54c6	-0.029093158
17	0x3e02b1e8	0.12763178
18	0xbea94513	-0.33060512
19	0x3eedf2fb	0.46474442
20	0xbdc03508	-0.09385115
21	0x3ea83303	0.3285142
22	0x3f159803	0.58435076
23	0x3da9c0c3	0.082887195
24	0x3e5a5605	0.21321876
25	0x3ebc10b4	0.36731493
26	0xbe628c3e	-0.2212381
27	0x3f44b89c	0.7684419
28	0x3e48f9fe	0.19626614
29	0x3dd60abe	0.10451268
30	0x3f08c594	0.5342648
31	0xbeb6e4e6	-0.3572151
32	0x3e337919	0.17526664
33	0x3d015d12	0.0315829
34	0xbf8d2141	-1.1025773
35	0x3ea2e04c	0.3181175
36	0x3e841123	0.25794324
37	0x3da55dd3	0.08074536
38	0xbdab372f	-0.08360135
39	0x3e836c97	0.25668785
40	0x3dc7dd07	0.097589545
41	0x3e85004c	0.2597679
42	0x3ec45fd6	0.38354367
43	0xbf1f93e9	-0.6233507
44	0xbe7b39d4	-0.24533778
45	0xbcc774fb	-0.024347773
46	0xbd586e5c	-0.052839622
47	0x3e8bfc5c	0.27340972
48	0x3e85d612	0.26139885
49	0xbf107c38	-0.5643954
50	0x3ecbdb4a	0.39815742
51	0x3e17457d	0.14772601
52	0xbd77e6fa	-0.06052301
53	0x3e27bce6	0.16380653
54	0x3ebd85d5	0.37016168
55	0xbe5ca8d1	-0.21548773
56	0x3ed36b8f	0.41292998
57	0x3df2723c	0.11838195
58	0x3e1a820e	0.15088674
59	0xbd283af4	-0.041071847
60	0x3dc0ff0b	0.094236456
61	0x3f0f5f44	0.5600474
62	0x3e851062	0.25989062
63	0x3eb32535	0.34989324
64	0xbd9bfdfa	-0.076168016
65	0xbd8fe533	-0.07026138
66	0xbf4f0bf1	-0.80877596
67	0x3ed5af32	0.41735226
68	0xbe156f3d	-0.14593215
69	0x3f26a73d	0.65098935
70	0x3ccd7604	0.025080688
71	0x3f026be4	0.5094588
72	0xbecb03c2	-0.39651304
73	0x3c1ed7dd	0.0096950205
74	0x3f01c516	0.50691354
75	0xbf51aa94	-0.81900907
76	0xbda3b4c7	-0.07993465
77	0x3dac0e19	0.084011264
78	0xbd00cf76	-0.03144785
79	0x3e184205	0.14868934
80	0x3e71f1e3	0.23627429
81	0xbe39c912	-0.18143108
82	0x3dafd918	0.08586329
83	0xbf042f22	-0.5163442
84	0xbf0a5d5f	-0.54048723
85	0xbea25eef	-0.31713054
86	0x3e1698e6	0.14706764
87	0x3f0a05f8	0.5391536
88	0x3ea77635	0.32707372
89	0x3e5c3f21	0.21508457
90	0xbe2e2775	-0.17007239
91	0x3ea64b44	0.32479298
92	0xbcd46cf7	-0.025930865
93	0x3e566951	0.20938613
94	0x3dcd5864	0.10026625
95	0x3e4c733a	0.1996583
96	0xbd14ea84	-0.036356464
97	0xbe8562fb	-0.2605208
98	0x3d1ef9b8	0.03881237
99	0xbeb3739d	-0.35049143
100	0xbf24b6b9	-0.6434131
101	0x3cb8434e	0.02249303
102	0x3e8097b7	0.2511575
103	0x3f4c0b6f	0.79704946
104	0x3ec15498	0.37759852
105	0xbde2bc3f	-0.11071061
106	0x3e3f1a1c	0.18662304
107	0x3d997d1b	0.07494565
108	0x3e2613a9	0.16218437
109	0x3d3ff384	0.046863094
110	0x3ee68402	0.4502259
111	0x3f24de48	0.64401674
112	0x3e9c9435	0.30581823
113	0x3e5370ef	0.2064855
114	0xbe244cd1	-0.16044928
115	0xbe0fcf1e	-0.14043853
116	0x3e10e94f	0.141515
117	0xbdc6808e	-0.096924886
118	0x3ed9ad1e	0.4251489
119	0xbe1b9355	-0.15192921
120	0x3eea6495	0.45779863
121	0xbec5a2da	-0.38600808
122	0x3dc3ba54	0.09557024
123	0x3f24ddb5	0.644008
124	0x3ecaacd3	0.3958498
125	0x3e5676dd	0.2094378
126	0x3d797530	0.060902774
127	0x3ed8a54e	0.42313617
128	0xbeaa7474	-0.33291972
129	0x3f1bf787	0.6092457
130	0x3ee4dd8c	0.44700277
131	0xbeac6c7f	-0.33676526
132	0x3e315c02	0.17320254
133	0x3ed10415	0.40823427
134	0x3e4d076c	0.20022362
135	0xbe5845fe	-0.2112045
136	0xbe5f42c7	-0.21802817
137	0x3ed4ad5f	0.41538522
138	0x3ea7ebea	0.32797176
139	0xbecbf002	-0.3983155
140	0xbdf3a3a9	-0.1189645
141	0x3dc53832	0.09629859
142	0x3e4cdd2d	0.20006247
143	0xbe7a0de8	-0.24419367
144	0xbe3054b5	-0.17219813
145	0xbd77bd8a	-0.060483493
146	0xbe2c04b5	-0.1679867
147	0x3e655a31	0.22397687
148	0xbe9538f5	-0.29145017
149	0x3f1b7e03	0.60739154
150	0x3e8df725	0.2772762
151	0x3e122372	0.14271334
152	0x3f0c7071	0.5485907
153	0xbebe9872	-0.37225682
154	0x3d10f8ad	0.035393406
155	0x3cd3b2b0	0.02584204
156	0x3e3b987e	0.1831989
157	0x3f0998b6	0.53748643
158	0x3e997448	0.29971528
159	0xbe43e845	-0.19131573
160	0x3e74f450	0.23921323
161	0xbe1b7802	-0.15182498
162	0x3e9f3cf9	0.31101206
163	0x3ebac584	0.36478817
164	0x3db74eac	0.08950552
165	0x3c7fc7d9	0.015611612
166	0x3c0984af	0.008393451
167	0x3eb311d4	0.3497454
168	0x3e91cbd7	0.2847583
169	0xbc20bab1	-0.009810136
170	0xbef28563	-0.4736739
171	0x3f034eb5	0.5129197
172	0x3e2cf0a1	0.16888668
173	0x3f1ff877	0.624885
174	0xbe1c16c7	-0.15243064
175	0xbddb8428	-0.10718566
176	0xbc0c8651	-0.008576945
177	0xbe536a5c	-0.20646042
178	0x3ebd03b7	0.36916897
179	0x3e89ea85	0.26936737
180	0xbe621e25	-0.22081812
181	0xbdb77952	-0.08958687
182	0xbf044d13	-0.51680106
183	0xbe08a922	-0.13345769
184	0xbe08080d	-0.13284321
185	0xbe89037f	-0.2676048
186	0xbf0750da	-0.52857745
187	0xbe8f743d	-0.2801837
188	0x3dfa11ad	0.12210403
189	0xbeb55c50	-0.3542199
190	0x3ef5bcc9	0.47995594
191	0xbec6130a	-0.386864
192	0x3ee94a8a	0.4556468
193	0x3ee05448	0.43814301
194	0x3da3b85d	0.07994149
195	0xbdbecda5	-0.09316567
196	0xbeb7db30	-0.35909414
197	0xbefa9dde	-0.48948568
198	0xbf0c4b4d	-0.548024
199	0xbd812db6	-0.06307547
200	0xbed79f75	-0.42113844
201	0xbd17ed6e	-0.037091665
202	0x3d4620db	0.048371177
203	0x3dc8e740	0.098097324
204	0xbedf854c	-0.43656385
205	0x3e683000	0.2267456
206	0xbea740a5	-0.32666507
207	0x3e5231f2	0.20526865
208	0x3cb48dcc	0.02204027
209	0x3f078727	0.529406
210	0xbe8639c6	-0.26215953
211	0x3ee8b2ba	0.45448858
212	0xbe860cbe	-0.26181597
213	0xbdb8f385	-0.09030823
214	0x3e2359a2	0.15952161
215	0xbdc6cd22	-0.09707095
216	0xbe86fba6	-0.26363868
217	0x3eb7011d	0.35743037
218	0x3eea4a45	0.45759788
219	0xbcda44fd	-0.026644224
220	0xbd027992	-0.03185422
221	0xbe948134	-0.29004824
222	0xbdaa9958	-0.08330029
223	0xbe8b7741	-0.2723942
224	0x3f02dcb4	0.51118016
225	0x3e450674	0.19240743
226	0xbcf92078	-0.03041099
227	0xbe1dae1d	-0.1539845
228	0xbd37d97a	-0.044885136
229	0x3e9d87fb	0.30767807
230	0x3eed04f9	0.46292856
231	0x3deadb0c	0.11467561
232	0x3f177163	0.5915739
233	0xbe12bedd	-0.14330621
234	0xbc3fd100	-0.011707544
235	0x3f445783	0.7669603
236	0x3e031356	0.12800345
237	0x3e072b06	0.13200006
238	0xbe633b34	-0.22190553
239	0xbe21678a	-0.15762153
240	0x3f003e12	0.5009471
241	0xbf143ff1	-0.57910067
242	0x3e198eea	0.14995924
243	0x3e51cf96	0.20489344
244	0xbebb31ed	-0.36561528
245	0x3ecf25ea	0.40458614
246	0x3e0e0a6d	0.13871165
247	0x3e591113	0.2119792
248	0x3d18d089	0.03730825
249	0x3e9fda7c	0.31221378
250	0xbe533404	-0.20625311
251	0x3e5c40c5	0.21509083
252	0x3d9d21be	0.076724514
253	0x3ee3d922	0.44501597
254	0x3f106b9d	0.56414205
255	0xbea98f9f	-0.33117387

arith.constant5 f4 [16, 5]
0	0xbf54388f	-0.828988
1	0x3e37801f	0.17919968
2	0xbe56bb66	-0.20969924
3	0xbe8c07e2	-0.27349764
4	0xbf1a902a	-0.60376227
5	0x3efe2701	0.49639133
6	0xbf0c9057	-0.54907745
7	0x3e16df0c	0.14733523
8	0x3ea3f7c1	0.3202496
9	0x3eb777f6	0.3583371
10	0xbec991e8	-0.3936913
11	0xbdd4ba9d	-0.10387156
12	0x3f14ccf2	0.5812522
13	0x3c196034	0.0093613155
14	0x3da5e63b	0.081005536
15	0x3cafe9c3	0.021473771
16	0x3ea0d0f2	0.31409413
17	0xbedde4b8	-0.4333856
18	0x3f3ff092	0.74976456
19	0xbe126cad	-0.14299269
20	0xbe8d905a	-0.27649194
21	0xbe33c53a	-0.17555705
22	0xbed357c9	-0.41277912
23	0x3cd3b617	0.025843663
24	0xbc9deb36	-0.019277196
25	0x3df03beb	0.117301784
26	0xbf81f906	-1.0154121
27	0xbef480bf	-0.47754475
28	0x3d7653e7	0.06013861
29	0xbec4932f	-0.38393542
30	0xbf5ac0c4	-0.85450387
31	0x3e2478ee	0.16061756
32	0xbdb47505	-0.08811382
33	0x3ee91f05	0.4553148
34	0xbf60ef77	-0.87865394
35	0xbe36ecb0	-0.17863727
36	0x3ed7a78b	0.42120013
37	0xbc756c0e	-0.0149793755
38	0xbf3096f5	-0.6898034
39	0x3e9c2904	0.30500042
40	0xbf04d7e8	-0.51891947
41	0x3d9b177d	0.075728394
42	0x3db862e5	0.09003238
43	0x3e3e0d76	0.18559822
44	0xbf4483a8	-0.7676339
45	0xbe5da12d	-0.21643515
46	0xbeb7d29d	-0.35902873
47	0xbd2d3fb6	-0.042297088
48	0xbefc711f	-0.49305055
49	0x3f064901	0.52455145
50	0x3e4f42bb	0.202403
51	0xbe481302	-0.19538501
52	0xbf457971	-0.7713843
53	0x3ee20e26	0.4415142
54	0x3eec22b8	0.46120238
55	0xbf6269c9	-0.88442665
56	0x3eb3d098	0.35120082
57	0x3e4cf0a6	0.20013675
58	0x3d94b251	0.07260574
59	0xbed4f959	-0.41596487
60	0xbea20ae0	-0.31648922
61	0x3e825f5c	0.25463378
62	0xbddab243	-0.10678532
63	0x3eb26c06	0.3484804
64	0xbeee306f	-0.46521327
65	0xbf53d770	-0.82750607
66	0xbce304bf	-0.027712224
67	0xbc2451f2	-0.010029303
68	0x3e90f6ce	0.28313297
69	0x3ec65d9d	0.38743296
70	0xbf29adc1	-0.6628075
71	0xbe834e23	-0.2564555
72	0x3ec25b26	0.37960166
73	0xbe04ac0d	-0.12956257
74	0xbc554127	-0.013016022
75	0xbe918990	-0.28425264
76	0x3f19a69a	0.6001984
77	0xbdcb5664	-0.09928587
78	0xbf070fdc	-0.52758574
79	0xbdbccca2	-0.09218718

arith.constant6 f4 [1, 5]
0	0x3cf52f5c	0.02992981
1	0x3eea123f	0.45717046
2	0x3d15e27d	0.03659295
3	0x3d3f13ad	0.046649624
4	0x3ca0098c	0.019535802

Const_1 f4 [1, 5]
0	0x420a9070	34.641052
1	0x41029e71	8.163682
2	0x41e88f7a	29.070057
3	0x42870a8c	67.5206
4	0x421cdff0	39.21869
